…
：原来YOLO整个网络结构包含了24个卷积层以及2个全连接层。由于车辆检测对实时性要求高，我们使用一种YOLO的简化版本：Fast YOLO，该模型使用简单的9层卷积替代了原来的24层卷积，它牺牲了一定的精度，处理速度更快，从YOLO的45fps提升到155fps。满足实时目标检测的需求。 （原YOLO网络结构） 1.1 修改图片通道顺序代码： 12#图片通道顺序修改为(channels,,height,width),保持和input_shape一致。keras.backend.set_image_dim_ordering('th') 1.2 自定义网络结构（Fast YOLO）代码： 12345678910111213141516171819202122232425262728293031#在这里，网络的输入变成了 448×448 ， 输出是一个 7×7×30 的张量。model = Sequential()model.add(Convolution2D(16, (3, 3),input_shape=(3,448,448),padding='same',strides=(1,1)))model.add(LeakyReLU(alpha=0.1))model.add(MaxPooling2D(pool_size=(2, 2)))model.add(Convolution2D(32, (3, 3) ,padding='same'))model.add(LeakyReLU(alpha=0.1))model.add(MaxPooling2D(pool_size=(2, 2),padding='valid'))model.add(Convolution2D(64, (3, 3) ,padding='same'))model.add(LeakyReLU(alpha=0.1))model.add(MaxPooling2D(pool_size=(2, 2),padding='valid'))model.add(Convolution2D(128, (3, 3) ,padding='same'))model.add(LeakyReLU(alpha=0.1))model.add(MaxPooling2D(pool_size=(2, 2),padding='valid'))model.add(Convolution2D(256, (3, 3) ,padding='same'))model.add(LeakyReLU(alpha=0.1))model.add(MaxPooling2D(pool_size=(2, 2),padding='valid'))model.add(Convolution2D(512, (3, 3) ,padding='same'))model.add(LeakyReLU(alpha=0.1))model.add(MaxPooling2D(pool_size=(2, 2),padding='valid'))model.add(Convolution2D(1024, (3, 3) ,padding='same'))model.add(LeakyReLU(alpha=0.1))model.add(Convolution2D(1024, (3, 3),padding='same'))model.add(LeakyReLU(alpha=0.1))model.add(Convolution2D(1024, (3, 3) ,padding='same'))model.add(LeakyReLU(alpha=0.1))model.add(Flatten())model.add(Dense(256))model.add(Dense(4096))model.add(LeakyReLU(alpha=0.1))model.add(Dense(1470)) 1.3模型可视化代码： 1model.summary() 打印： 1234567891011121314151617181920212223242526272829303132333435363738394041424344454647484950515253545556575859606162636465_________________________________________________________________Layer (type) Output Shape Param # =================================================================conv2d_318 (Conv2D) (None, 16, 448, 448) 448 _________________________________________________________________leaky_re_lu_353 (LeakyReLU) (None, 16, 448, 448) 0 _________________________________________________________________max_pooling2d_213 (MaxPoolin (None, 16, 224, 224) 0 _________________________________________________________________conv2d_319 (Conv2D) (None, 32, 224, 224) 4640 _________________________________________________________________leaky_re_lu_354 (LeakyReLU) (None, 32, 224, 224) 0 _________________________________________________________________max_pooling2d_214 (MaxPoolin (None, 32, 112, 112) 0 _________________________________________________________________conv2d_320 (Conv2D) (None, 64, 112, 112) 18496 _________________________________________________________________leaky_re_lu_355 (LeakyReLU) (None, 64, 112, 112) 0 _________________________________________________________________max_pooling2d_215 (MaxPoolin (None, 64, 56, 56) 0 _________________________________________________________________conv2d_321 (Conv2D) (None, 128, 56, 56) 73856 _________________________________________________________________leaky_re_lu_356 (LeakyReLU) (None, 128, 56, 56) 0 _________________________________________________________________max_pooling2d_216 (MaxPoolin (None, 128, 28, 28) 0 _________________________________________________________________conv2d_322 (Conv2D) (None, 256, 28, 28) 295168 _________________________________________________________________leaky_re_lu_357 (LeakyReLU) (None, 256, 28, 28) 0 _________________________________________________________________max_pooling2d_217 (MaxPoolin (None, 256, 14, 14) 0 _________________________________________________________________conv2d_323 (Conv2D) (None, 512, 14, 14) 1180160 _________________________________________________________________leaky_re_lu_358 (LeakyReLU) (None, 512, 14, 14) 0 _________________________________________________________________max_pooling2d_218 (MaxPoolin (None, 512, 7, 7) 0 _________________________________________________________________conv2d_324 (Conv2D) (None, 1024, 7, 7) 4719616 _________________________________________________________________leaky_re_lu_359 (LeakyReLU) (None, 1024, 7, 7) 0 _________________________________________________________________conv2d_325 (Conv2D) (None, 1024, 7, 7) 9438208 _________________________________________________________________leaky_re_lu_360 (LeakyReLU) (None, 1024, 7, 7) 0 _________________________________________________________________conv2d_326 (Conv2D) (None, 1024, 7, 7) 9438208 _________________________________________________________________leaky_re_lu_361 (LeakyReLU) (None, 1024, 7, 7) 0 _________________________________________________________________flatten_36 (Flatten) (None, 50176) 0 _________________________________________________________________dense_106 (Dense) (None, 256) 12845312 _________________________________________________________________dense_107 (Dense) (None, 4096) 1052672 _________________________________________________________________leaky_re_lu_362 (LeakyReLU) (None, 4096) 0 _________________________________________________________________dense_108 (Dense) (None, 1470) 6022590 =================================================================Total params: 45,089,374Trainable params: 45,089,374Non-trainable params: 0_________________________________________________________________ 2.加载模型数据功能：使用已经训练好的模型，将模型参数加载到keras模型中 代码： 1load_weights(model,'yolo-tiny.weights') 注意：原YOLO整个网络包含了24个卷积层以及2个全连接层。 3.将模型用于测试单张图片3.1主程序代码： 1234567891011121314151617181920212223242526272829303132
…
